model_c.ckpt (torch, 686406 bytes, 33 tensors)

convs.0.0.weight f4 [6, 3, 3, 3]
-0.015682936 0.23045793 0.113660015 -0.02629554 0.25882718 0.05065717 0.21179381 0.19769692
0.15578574 0.019385505 0.01654336 -0.0955694 0.06680594 -0.008478788 -0.14362781 -0.20378102
-0.10308447 -0.0073952386 -0.13332035 0.03905351 0.038808923 -0.108259186 0.022303408 -0.057277076
0.023977868 -0.01625715 -0.14997181 0.1647595 0.066406384 -0.1460347 0.15728575 -0.08030477
-0.17642523 -0.058441523 -0.13220568 -0.11229737 -0.054859612 0.009343123 0.14309113 0.035954032
0.10344364 0.10141661 -0.03276427 0.11659139 -0.057525914 0.05246557 0.022600172 0.16829741
-0.11931892 -0.24061275 -0.073144644 -0.19628444 0.042520512 0.061616857 -0.048033997 0.10795764
0.087086014 0.03796752 0.22129433 0.04962552 0.06987391 0.2504686 0.24008141 0.0042685093
-0.15008663 -0.031182664 -0.04586031 -0.17758566 -0.13458145 0.08206387 -0.09701864 0.036323298
-0.11377494 0.04142463 -0.06123405 -0.048126634 -0.13853952 0.17564213 0.013982978 0.010324555
-0.1297836 0.14731221 -0.17074247 -0.12495853 0.08594937 0.06098411 0.1297182 -0.061077103
-0.020993743 0.051845398 -0.07792152 -0.004567377 -0.048504103 -0.118494615 0.14328597 -0.08255028
0.024515115 -0.023995107 -0.07512091 -0.11803571 -0.18785706 0.16748184 0.09775806 0.011256438
-0.11088527 0.0059589143 0.062623225 -0.16577321 -0.023560133 -0.00046453718 0.112858355 -0.11386988
0.011074595 0.0047943224 -0.08249938 -0.23639514 0.09332965 -0.005684169 -0.09291487 -0.10295808
-0.09439017 -0.13052301 -0.10733281 -0.16057146 -0.14091098 0.08200771 0.17000982 0.0003289368
0.11872693 0.21913895 0.082213 -0.03292204 0.07637212 0.1230148 0.24628189 -0.052355822
-0.03169869 0.037518933 -0.01014078 -0.045208655 0.19643205 -0.17494567 -0.09372589 0.11108219
0.12989248 0.16745043 0.1996218 -0.013222215 0.1388978 -0.11177905 0.08964559 -0.0005347168
-0.01146211 0.19490549 0.05695784 -0.0630821 -0.12949884 -0.10463896 0.07645669 0.15085481
-0.06257525 0.011869777
00000000: 8079 80bc 2afd 6b3e 95c6 e83d bf69 d7bc
00000010: ff84 843e e57d 4f3d 7ae0 583e 1071 4a3e
00000020: 4c86 1f3e 5ace 9e3c f185 873c e4b9 c3bd
00000030: 8dd1 883d 9dea 0abc 2b13 13be f9ab 50be
00000040: f31d d3bd c253 f2bb 2185 08be 93f6 1f3d
00000050: 1bf6 1e3d feb6 ddbd a3b5 b63c 5e9b 6abd
00000060: 3c6d c43c b72d 85bc 3692 19be b7b6 283e
00000070: 1200 883d 1f8a 15be 840f 213e d476 a4bd
00000080: d1a8 34be 6160 6fbd ed60 07be 2afc e5bd
00000090: 79b4 60bd e613 193c 7b86 123e 8944 133d
000000a0: 42da d33d 83b3 cf3d d433 06bd 77c7 ee3d
000000b0: 4ba0 6bbd 23e6 563d ff23 b93c 2856 2c3e
000000c0: 7a5d f4bd 3063 76be dccc 95bd cafe 48be
000000d0: fd29 2e3d f561 7c3d 4cbf 44bd e518 dd3d
000000e0: 275a b23d d583 1b3d fb9a 623e 2144 4b3d
000000f0: 0d1a 8f3d 6c3d 803e e7d7 753e dade 8b3b
00000100: 4fb0 19be c972 ffbc 05d8 3bbd 04d9 35be
00000110: b8cf 09be 1a11 a83d b5b1 c6bd bdc7 143d
00000120: d602 e9bd dfac 293d 8ed0 7abd 6f20 45bd
00000130: 4edd 0dbe 88db 333e dc18 653c 5328 293c
00000140: fee5 04be 03d9 163e 1dd7 2ebe 42ea ffbd
00000150: 3906 b03d 79ca 793d d9d4 043e fc2b 7abd
00000160: 12fb abbc d75b 543d 5195 9fbd efa9 95bb
00000170: 3dac 46bd 4ead f2bd 8fb9 123e 1f10 a9bd
00000180: ecd3 c83c 6391 c4bc fed8 99bd b5bc f1bd
00000190: 9a5d 40be 5c80 2b3e 6135 c83d ec6c 383c
000001a0: d117 e3bd ff42 c33b 9b40 803d 74c0 29be
000001b0: 2e01 c1bc 208d f3b9 4822 e73d 9d34 e9bd
000001c0: 3872 353c b119 9d3b 6ff5 a8bd 9111 72be
000001d0: 9e23 bf3d 4442 babb 274a bebd b0db d2bd
000001e0: a24f c1bd d3a7 05be 4ed1 dbbd d86c 24be
000001f0: f84a 10be a9f3 a73d 0e17 2e3e 2675 ac39
00000200: 1b27 f33d f665 603e 4a5f a83d 43d9 06bd
00000210: fc68 9c3d 2fef fb3d 5231 7c3e 0f73 56bd
00000220: 7cd6 01bd 74ad 193d 8425 26bc b62c 39bd
00000230: 7c25 493e f524 33be 5cf3 bfbd 0f7f e33d
00000240: 8902 053e 2078 2b3e a869 4c3e fda1 58bc
00000250: 3a3b 0e3e 6aec e4bd 1b98 b73d 3d2c 0cba
00000260: 93cb 3bbc 4e95 473e a04c 693d 3031 81bd
00000270: 589b 04be f34c d6bd 5395 9c3d af79 1a3e
00000280: 7427 80bd 7479 423c

convs.0.0.bias f4 [6]
-0.2514474 0.28553903 -0.21771581 -0.17362802 0.019388765 -0.15278454
00000000: b7bd 80be 2c32 923e e5f0 5ebe 8bcb 31be
00000010: 30d5 9e3c 8d73 1cbe

convs.1.0.weight f4 [12, 6, 3, 3]
-0.04286736 -0.16812226 0.027448278 -0.082993664 -0.1935483 0.01154622 -0.0599124 -0.06816215
0.05042514 0.34439695 0.27442747 0.18770875 0.20619144 0.02265975 0.038144823 0.054125957
0.044212792 -0.04103666 -0.04479745 -0.045778167 0.038955502 -0.22486421 -0.24883474 0.03135212
0.04889229 0.20522763 0.01635252 0.15542199 -0.11416666 0.12919445 -0.101491675 -0.03768945
0.1095962 -0.10324804 0.027499387 -0.042908996 -0.143967 -0.03780215 -0.03598054 -0.20970389
-0.005876209 -0.0025191922 -0.3056825 -0.12778723 -0.20718832 0.053503353 0.06990536 0.068861775
0.046641774 0.066979565 0.13235608 0.036429457 0.04907219 0.06799371 -0.06497896 -0.0901684
0.21134713 -0.12125894 -0.10344683 0.14002334 0.15055151 -0.013681173 0.15020856 0.03529387
0.09312249 0.12229515 0.10879819 -0.16221324 0.11356203 0.23122169 0.28383118 0.19921738
0.060362216 0.12804423 -0.010237907 0.22366622 0.31423014 0.117115855 0.15580666 -0.12238222
-0.025061134 -0.09034621 0.033399608 0.041732293 0.01054754 -0.014813541 -0.10689994 0.04392934
0.12122257 0.023085324 -0.09355316 0.10211885 -0.071865425 0.08091739 0.03468485 0.072224095
-0.039117582 -0.025256345 0.05850814 -0.043258876 0.021478062 -0.019225422 0.0952809 0.09206941
-0.08309377 0.13307309 0.14318599 0.12643716 0.039088886 -0.08976035 -0.09582548 -0.038748175
0.038883254 -0.15061274 -0.04339837 -0.038840223 -0.11283701 -0.088951364 -0.15649773 -0.09454355
-0.14692906 -0.02709631 -0.010606133 0.0033548656 -0.055139676 0.043579996 0.07119327 3.0823947e-05
-0.05237947 -0.15361522 0.19694018 0.14142495 0.26171592 -0.048400197 -0.13937427 0.077434
0.001991277 0.13600844 -0.06807926 0.08780938 0.054375615 -0.08895841 0.092498325 0.026585191
0.12609264 0.17070012 0.15586965 0.13918877 0.25131887 0.02455078 0.10049678 0.09016324
0.22883165 -0.10760024 -0.017885566 -0.13350263 -0.033186022 0.013097838 0.062195733 -0.13747533
0.14199416 0.1250249 0.14453468 -0.09707381 0.021763584 0.13080882 0.115597725 -0.08008369
0.11862681 -0.09358471 -0.020963607 -0.14473225 0.38259226 -0.050979547 -0.23080033 0.033011965
-0.061954547 -0.3631653 -0.0021809223 -0.17839105 0.07053811 0.03415924 0.026780343 0.056316357
0.14405894 0.18194035 0.023846822 0.25259256 0.19759864 -0.103118606 0.17920859 0.022707248
0.022170654 0.11195702 -0.090501875 -0.12962426 0.008274554 -0.028577007 0.07006352 0.070874065
0.061971582 0.03846665 -0.02341518 0.1788942 0.026047606 -0.036433764 0.00028982625 0.01856617
0.007832176 0.07073768 0.09542992 0.06169651 0.02973365 -0.029577319 -0.10100107 -0.08008138
0.069669046 0.013017207 0.07097909 -0.07593404 -0.005224605 0.013724463 0.012455117 -0.0755858
-0.030243147 0.04813409 -0.051414248 -0.054967728 -0.15678705 -0.12459651 -0.15296483 8.443594e-05
-0.012400873 -0.035757232 -0.12891999 -0.1105147 0.06010873 0.038568914 0.08627426 0.007300706
-0.10646292 -0.023428196 0.025671808 -0.076014526 0.09714775 0.10807918 -0.06595721 -0.110103816
-0.1362022 0.02425041 -0.0027812412 0.037335385 0.084801525 -0.10701562 -0.1287986 0.022122437
00000000: af95 2fbd 3e28 2cbe 36db e03c 95f8 a9bd
00000010: 8731 46be 5b2c 3d3c b466 75bd 9998 8bbd
00000020: 978a 4e3d cc54 b03e c281 8c3e b936 403e
00000030: d923 533e f1a0 b93c bf3d 1c3d 2eb3 5d3d
00000040: 7918 353d 0f16 28bd 887d 37bd e381 3bbd
00000050: ce8f 1f3d ce42 66be 89ce 7ebe 156b 003d
00000060: 4843 483d 3127 523e b8f5 853c f126 1f3e
00000070: 36d0 e9bd 8d4b 043e deda cfbd 4160 1abd
00000080: f973 e03d b573 d3bd 6546 e13c 58c1 2fbd
00000090: 166c 13be 6dd6 1abd 5560 13bd 9ebc 56be
000000a0: 378d c0bb 0819 25bb 6b82 9cbe a8da 02be
000000b0: 2d29 54be 5526 5b3d 8b2a 8f3d 6707 8d3d
000000c0: 720b 3f3d 952c 893d 5a88 073e 0e37 153d
000000d0: ecff 483d 4940 8b3d b013 85bd 36aa b8bd
000000e0: 626b 583e 9b56 f8bd eedb d3bd 4762 0f3e
000000f0: 2d2a 1a3e 0027 60bc 46d0 193e 4e90 103d
00000100: 01b7 be3d e175 fa3d 96d1 de3d 3a1b 26be
00000110: 3693 e83d 61c5 6c3e 5252 913e a4ff 4b3e
00000120: 5f3e 773d 071e 033e e5bc 27bc c208 653e
00000130: c6e2 a03e 70da ef3d c88b 1f3e 88a3 fabd
00000140: 024d cdbc 6f07 b9bd 07ce 083d 7bef 2a3d
00000150: 97cf 2c3c 7fb4 72bc 5bee dabd 40ef 333d
00000160: 8a43 f83d 6f1d bd3c cd98 bfbd b023 d13d
00000170: 2e2e 93bd 04b8 a53d b411 0e3d 3aea 933d
00000180: c239 20bd 65e6 cebc 3ba6 6f3d 3830 31bd
00000190: c3f2 af3c a27e 9dbc a222 c33d e38e bc3d
000001a0: 112d aabd 5044 083e 599f 123e be78 013e
000001b0: ab1b 203d 46d4 b7bd 2640 c4bd 68b6 1ebd
000001c0: 0c44 1f3d 3a3a 1abe 7dc2 31bd ed16 1fbd
000001d0: 1717 e7bd 222c b6bd f140 20be 0ca0 c1bd
000001e0: 9274 16be 15f9 ddbc 59c5 2dbc 4edd 5b3b
000001f0: 24da 61bd f080 323d c7cd 913d f648 0138
00000200: db8b 56bd 4f4d 1dbe b0aa 493e b4d1 103e
00000210: a1ff 853e 493f 46bd 21b8 0ebe b895 9e3d
00000220: 1680 023b cc45 0b3e 246d 8bbd 67d5 b33d
00000230: f7b8 5e3d d42f b6bd c36f bd3d 30c9 d93c
00000240: 6e1e 013e 03cc 2e3e 4b9c 1f3e 8087 0e3e
00000250: deac 803e b81e c93c 41d1 cd3d 81a7 b83d
00000260: d852 6a3e 845d dcbd c084 92bc eab4 08be
00000270: 11ee 07bd 5098 563c f4c0 7e3d 55c6 0cbe
00000280: eb66 113e 8706 003e e600 143e a2ce c6bd
00000290: 8b49 b23c bff2 053e 80be ec3d eb02 a4bd
000002a0: 9df2 f23d 57a9 bfbd dfbb abbc b134 14be
000002b0: 22e3 c33e eecf 50bd ec56 6cbe 8e37 073d
000002c0: 0dc4 7dbd cdf0 b9be ceed 0ebb 25ac 36be
000002d0: 4976 903d 8fea 0b3d 7362 db3c fbab 663d
000002e0: 3084 133e 924e 3a3e 695a c33c d053 813e
000002f0: 4c57 4a3e d92f d3bd 7582 373e 8d04 ba3c
00000300: 3b9f b53c b949 e53d 0c59 b9bd 39bc 04be
00000310: ff91 073c 541a eabc 767d 8f3d 6c26 913d
00000320: ead5 7d3d 358f 1d3d 31d1 bfbc 0b30 373e
00000330: ca61 d53c 923b 15bd d2f3 9739 1518 983c
00000340: 8752 003c ebde 903d c370 c33d 7bb5 7c3d
00000350: fc93 f33c 224c f2bc a6d9 cebd b501 a4bd
00000360: a5ae 8e3d 2046 553c 7c5d 913d 4e83 9bbd
00000370: 2a33 abbb 92dc 603c 8c10 4c3c bacc 9abd
00000380: 7ac0 f7bc 4028 453d bf97 52bd d725 61bd
00000390: c98c 20be 742c ffbd d0a2 1cbe 3313 b138
000003a0: 082d 4bbc 2d76 12bd 9a03 04be 8855 e2bd
000003b0: 9234 763d 70fa 1d3d 8fb0 b03d c33a ef3b
000003c0: 3b09 dabd 7dec bfbc af4d d23c 81ad 9bbd
000003d0: 66f5 c63d 9e58 dd3d 9314 87bd 1c7e e1bd
000003e0: 9778 0bbe cca8 c63c 7c45 36bb fdec 183d
000003f0: 6cac ad3d 012b dbbd c8e3 03be 1d3a b53c

convs.1.0.bias f4 [12]
0.040818833 -0.09160664 0.078284524 -0.18422039 -0.1381755 0.15580969 0.026725946 -0.14932491
-0.010053179 -0.10150002 0.06629959 -0.2394799
00000000: a631 273d 439c bbbd a353 a03d 45a4 3cbe
00000010: e17d 0dbe 938c 1f3e 5ff0 da3c a1e8 18be
00000020: 17b6 24bc 3edf cfbd 14c8 873d 383a 75be

convs.2.0.weight f4 [24, 12, 3, 3]
-0.08468855 -0.013300323 -0.057507053 -0.076132335 -0.057455268 -0.0310508 -0.05625719 -0.011469387
-0.034247696 -0.023229403 -0.044259556 0.013388827 -0.10686111 -0.16111334 -0.06276082 -0.0037522982
-0.084904 -0.10461129 -0.034034565 -0.108982384 -0.0023236098 -0.12725641 0.04202703 -0.14110437
-0.004044319 -0.13124083 -0.06651405 0.040294714 -0.009290594 -0.069317974 0.008958179 -0.087865815
-0.06481514 -0.04693402 0.07034616 -0.062609755 0.061321206 0.035427332 0.02643822 -0.066452555
-0.038810354 0.021731691 -0.005626417 -0.0072307736 -0.06018757 -0.018605864 -0.08097621 0.009981077
0.006338639 -0.050937016 -0.078385055 -0.13507915 -0.030795686 -0.051632863 -0.04826182 -0.060043465
-0.06561523 0.03747695 0.005700835 -0.08376123 -0.072809674 -0.03528723 -0.03041979 0.091404736
0.076938555 0.018055044 0.085641816 -0.048837874 -0.014737917 0.039819207 0.089479975 -0.0052428986
0.014552745 -0.0121955145 -0.05830613 -0.11618769 -0.047717474 -0.06019992 0.022063477 -0.085782334
-0.048759136 -0.07727155 -0.075390175 -0.086273104 -0.058040008 -0.06893541 -0.06487282 0.023302462
0.008346573 0.038215656 -0.08087614 0.020534346 0.021548593 -0.15908813 0.033704273 -0.025676148
-0.037202056 -0.0537166 -0.1299806 0.009156286 -0.11696306 0.02768343 0.05509927 -0.05990259
-0.06380362 -0.03087909 0.07206073 -0.07126035 0.15792283 0.03148032 0.15924847 0.06432001
0.059814524 0.02572764 0.042354856 0.077043034 0.0014171756 -0.08403414 -0.10262888 0.016405948
0.099063255 -0.09491123 0.027343286 -0.021722423 0.050014883 -0.042035267 0.12221151 -0.0101721
-0.0026969747 0.113751 0.08871853 -0.029457787 0.10274579 0.12944156 0.027171416 0.08651632
0.0067601395 0.011501442 0.04730829 0.07183378 0.03720385 -0.073284134 -0.01721121 0.008190101
-0.06301834 0.12033955 -0.077655345 -0.027726294 -0.05501092 -0.011021408 -0.0384043 0.01588177
0.028610393 -0.036883097 0.117770925 -0.040958386 0.083371714 0.13224918 0.044102013 0.03237926
-0.039419986 -0.044205792 0.06641147 -0.018314663 -0.04331489 0.074386515 0.0397175 -0.029761532
0.06481076 -0.0052194283 0.048889853 0.09213874 -0.041269977 -0.0387222 0.06925029 -0.05576916
0.033423793 -0.02904896 -0.05329419 -0.097435236 -0.065851346 0.026573958 0.13154978 0.06039652
-0.037270177 0.1823346 0.09054526 0.08202986 0.097545534 0.02041374 0.0523859 -0.097198606
0.04328833 -0.06484767 -0.025781693 0.030554006 0.029244404 0.011208169 0.3043393 0.15309273
0.26573977 0.19407204 0.29459006 0.16618325 0.11582779 0.20272842 0.04030157 -0.025813641
-0.073443905 -0.08958783 -0.05386643 -0.14039071 -0.2529736 -0.07517745 -0.15933096 -0.2182875
0.053829506 -0.050024007 0.17456234 -0.04325948 -0.013003164 -0.048282463 -0.07723759 -0.06825536
0.046301868 -0.07568891 0.04905388 -0.018916853 0.06977178 0.06416193 0.02188829 0.006558182
0.029707702 0.055640217 -0.22170782 -0.11364671 -0.07749041 -0.14254902 -0.2683376 -0.14465593
-0.15094605 -0.19135073 -0.13162011 0.05499187 -0.117169514 -0.18076766 0.011876324 0.020105222
-0.17481561 -0.25802997 -0.14283657 -0.05016561 0.008539069 0.023226421 -0.02532661 -0.012680517
00000000: 3171 adbd 99e9 59bc 848c 6bbd 45eb 9bbd
00000010: 3756 6bbd 3f5e febc f06d 66bd 19ea 3bbc
00000020: 5047 0cbd 974b bebc 8249 35bd d05c 5b3c
00000030: ffd9 dabd e5fa 24be bf88 80bd 1ee9 75bb
00000040: 26e2 adbd 723e d6bd d467 0bbd 2832 dfbd
00000050: b447 18bb 814f 02be 8924 2c3d aa7d 10be
00000060: 3586 84bb ff63 06be 8538 88bd 120c 253d
00000070: 9337 18bc 95f6 8dbd 53c5 123c fef2 b3bd
00000080: cdbd 84bd e33d 40bd a611 903d 8b39 80bd
00000090: f22b 7b3d 401c 113d f794 d83c 4718 88bd
000000a0: 9bf7 1ebd a906 b23c cf5d b8bb 20f0 ecbb
000000b0: 3e87 76bd 536b 98bc dbd6 a5bd ac87 233c
000000c0: 5cb4 cf3b 55a3 50bd 5888 a0bd 3052 0abe
000000d0: 3c47 fcbc fb7c 53bd 30ae 45bd 23f0 75bd
000000e0: 4761 86bd 6e81 193d 12ce ba3b 028b abbd
000000f0: 3d1d 95bd 5889 10bd ec32 f9bc 6832 bb3d
00000100: f691 9d3d 2ce8 933c fa64 af3d 390a 48bd
00000110: 4e77 71bc 7719 233d 4741 b73d 9fcc abbb
00000120: a36e 6e3c b2cf 47bc 69d2 6ebd d0f3 edbd
00000130: 6673 43bd 3194 76bd 77be b43c a6ae afbd
00000140: a9b7 47bd 8c40 9ebd 2a66 9abd f4af b0bd
00000150: 5cbb 6dbd 022e 8dbd 0bdc 84bd cee4 be3c
00000160: 11c0 083c 0588 1c3d 64a2 a5bd a537 a83c
00000170: ad86 b03c 00e8 22be 7e0d 0a3d c956 d2bc
00000180: 2f61 18bd f005 5cbd a219 05be 3f04 163c
00000190: 548a efbd 5cc8 e23c c6af 613d 6b5c 75bd
000001a0: 79ab 82bd 25f6 fcbc 9394 933d f2f0 91bd
000001b0: 86b6 213e 82f1 003d 0812 233e 36ba 833d
000001c0: 1300 753d c6c2 d23c 497c 2d3d bdc8 9d3d
000001d0: 86c0 b93a 171a acbd 172f d2bd c465 863c
000001e0: ade1 ca3d d260 c2bd 07ff df3c 39f3 b1bc
000001f0: 68dc 4c3d 2c2d 2cbd 074a fa3d e1a8 26bc
00000200: babf 30bb 49f6 e83d 10b2 b53d 7551 f1bc
00000210: 626c d23d 548c 043e 9796 de3c 782f b13d
00000220: 2984 dd3b 8b70 3c3c 56c6 413d 971d 933d
00000230: 1063 183d fe15 96bd 86fe 8cbc c62f 063c
00000240: c20f 81bd 9574 f63d c409 9fbd 4122 e3bc
00000250: 2153 61bd 2393 34bc d44d 1dbd 7c1a 823c
00000260: 5860 ea3c bb12 17bd e231 f13d fbc3 27bd
00000270: cabe aa3d 546c 073e 50a4 343d 1da0 043d
00000280: da76 21bd 2211 35bd bd02 883d a208 96bc
00000290: f46a 31bd f557 983d d1ae 223d 75ce f3bc
000002a0: 81bb 843d bd07 abbb ba40 483d 3cb3 bc3d
000002b0: b50a 29bd 2b9b 1ebd 19d3 8d3d 346e 64bd
000002c0: 63e7 083d 16f8 edbc 024b 5abd 208c c7bd
000002d0: 12dd 86bd a1b1 d93c fcb4 063e 5762 773d
000002e0: 9da8 18bd ecb5 3a3e cb6f b93d 45ff a73d
000002f0: f4c5 c73d b73a a73c 9992 563d 1010 c7bd
00000300: 1b4f 313d dbce 84bd 2134 d3bc 654c fa3c
00000310: f691 ef3c 78a2 373c 5cd2 9b3e 57c4 1c3e
00000320: 0b0f 883e d2ba 463e 82d4 963e f12b 2a3e
00000330: 1f37 ed3d 0a98 4f3e 4213 253d 2177 d3bc
00000340: c269 96bd d379 b7bd 0ca3 5cbd 95c2 0fbe
00000350: c185 81be a3f6 99bd a827 23be c286 5fbe
00000360: 547c 5c3d f9e5 4cbd 78c0 323e da30 31bd
00000370: 390b 55bc d5c3 45bd be2e 9ebd 77c9 8bbd
00000380: 07a7 3d3d ca02 9bbd b9ec 483d 84f7 9abc
00000390: 82e4 8e3d 5467 833d 124f b33c 05e6 d63b
000003a0: 915d f33c ffe6 633d 6007 63be 9bbf e8bd
000003b0: 4bb3 9ebd 5ff8 11be 8c63 89be af20 14be
000003c0: 9a91 1abe 72f1 43be 6cc7 06be 283f 613d
000003d0: 92f6 efbd 281b 39be ea94 423c b5b3 a43c
000003e0: dd02 33be 811c 84be c043 12be 747a 4dbd
000003f0: 74e7 0b3c 5645 be3c c079 cfbc f1c1 4fbc

convs.2.0.bias f4 [24]
-0.1606012 -0.11160763 0.05672424 -0.13716589 0.2758829 -0.10548645 0.10356697 -0.089104585
-0.038919844 -0.04162984 0.038673785 0.11253201 0.07640985 0.13585185 -0.12383758 -0.03081067
-0.119058385 -0.025231516 -0.0056635225 0.017396469 -0.1194685 -0.0752966 0.16554175 0.1404939
00000000: a474 24be 8b92 e4bd ad57 683d 3775 0cbe
00000010: 8640 8d3e 4809 d8bd eb1a d43d 777c b6bd
00000020: 6a6a 1fbd 0d84 2abd 6768 1e3d 2f77 e63d
00000030: c47c 9c3d bf1c 0b3e 8f9e fdbd a966 fcbc
00000040: e2d4 f3bd 53b2 cebc 1295 b9bb 0a83 8e3c
00000050: e7ab f4bd 1b35 9abd c783 293e a2dd 0f3e

convs.3.0.weight f4 [48, 24, 3, 3]
0.01854216 -0.052445725 0.006633692 -0.03728539 0.034924306 0.0024853458 -0.05324078 0.057076342
-0.044011246 -0.039018936 -0.007980115 -0.03567837 0.065596975 0.016826903 -0.032738607 0.0020142621
-0.05142176 -0.00121857 0.046960026 -0.010855881 -0.01821032 -0.054926675 -0.06554027 -0.049343944
-0.07977287 -0.10099068 0.058781244 -0.2081497 -0.1031042 -0.051585544 -0.04159497 -0.07746804
-0.16583091 -0.052548923 -0.046603225 -0.15176722 0.07740161 0.09210749 0.021242205 0.1657346
0.069913454 0.01254311 0.035985664 0.13347517 0.09184344 0.060910363 -0.0524711 0.054296006
-0.024579294 -0.051570192 -0.015322314 0.014992713 0.072976075 0.03204671 0.21884334 0.03572819
0.14226703 0.21813007 0.18138978 0.14776908 0.20531222 0.10375215 0.15586698 0.015500961
0.08389573 0.009709223 0.01641554 0.03984609 0.02912681 0.03955372 -0.0058031627 -0.03597759
-0.045739967 -0.011801128 0.0070066615 0.07003712 0.072640285 -0.00863308 -0.044470996 -0.01851823
-0.043484587 -0.010338559 0.09048612 0.02198939 -0.00037305898 -0.05148513 0.088234186 0.009181027
-0.0071003092 0.03928021 0.08148246 0.022306701 0.010819873 0.022724882 -0.0072526005 -0.042842552
0.022506027 0.0064078607 -0.023100661 0.17646457 0.12420249 0.16158926 0.036727443 -0.006802112
0.103881456 0.10575762 0.12602904 0.2996218 0.036776505 -0.010409172 0.029164042 0.07237858
-0.018429233 0.039449487 0.015721526 -0.08598341 0.11970619 0.19575913 0.061748315 0.087521516
0.059031297 -0.071302906 0.04918434 0.079783075 -0.03457241 0.14464119 -0.058690716 -0.087360956
-0.106400125 -0.025748184 -0.024537304 -0.09671047 0.017014036 0.017940233 -0.055564184 0.15233605
0.048683025 0.077729456 0.032248255 -0.012494134 -0.03366467 0.09833097 -0.0071994765 0.0010333585
0.014246343 0.020379322 0.07897365 -0.024294462 0.04886523 0.00450754 0.045089412 0.0016158203
0.017833907 0.29679006 0.21406579 0.20442483 0.26208007 0.2600983 0.26601925 0.2594438
0.30161577 0.2813558 0.070509255 0.053178236 0.028617358 -0.0041122464 0.04864697 0.04766762
0.041940838 0.07591183 0.050506566 0.021149356 0.11402877 -0.01923109 0.010103304 0.030916732
0.12526904 0.15596053 -0.0012475884 0.20156349 -0.09851329 -0.08458344 0.019875156 -0.04759234
-0.16497096 -0.006535818 -0.010673765 -0.045153487 0.053957615 0.017967004 -0.1924515 -0.16137871
-0.14092134 0.042966727 0.029468885 -0.021945091 -0.010996581 0.018557023 0.25154877 0.08956601
0.17595907 0.072899625 0.010280302 0.08606855 0.17864786 0.07790583 0.15124756 -0.05905087
-0.12998825 -0.15965465 -0.07496369 -0.048882805 -0.10063616 -0.110678576 -0.073346466 -0.17853731
0.037017174 0.0050844434 -0.06057035 0.020390967 -0.048951093 -0.0063848495 0.027748207 0.0045406707
0.0032465993 -0.03380609 0.008582785 0.033731572 -0.061417606 0.018817062 0.029176949 -0.036619004
-0.014414728 -0.06560222 -0.01547971 -0.045184873 -0.03914985 0.015128071 -0.013846529 0.048453003
0.012786316 -0.06675105 0.050211493 0.03080433 -0.021008087 0.020353379 0.0034892934 0.058708604
-0.007675468 -0.030180031 0.00855397 -0.067338295 -0.071444966 -0.0809387 -0.0027848904 -0.051859017
00000000: bae5 973c 54d1 56bd 715f d93b 91b8 18bd
00000010: ca0c 0f3d 2fe1 223b 0113 5abd e2c8 693d
00000020: 2345 34bd 52d2 1fbd 07bf 02bc 7c23 12bd
00000030: b557 863d 93d8 893c eb18 06bd b601 043b
00000040: a09f 52bd 6db8 9fba 2859 403d dddc 31bc
00000050: cf2d 95bc cbfa 60bd fa39 86bd e01c 4abd
00000060: f55f a3bd 34d4 cebd 9ac4 703d 3225 55be
00000070: 4b28 d3bd 5d4b 53bd 7d5f 2abd 90a7 9ebd
00000080: 94cf 29be 8a3d 57bd 06e3 3ebd de68 1bbe
00000090: bc84 9e3d daa2 bc3d 2204 ae3c 55b6 293e
000000a0: c92e 8f3d 9e81 4d3c b465 133d b7ad 083e
000000b0: 6a18 bc3d 257d 793d f0eb 56bd 7d65 5e3d
000000c0: 845a c9bc 443b 53bd 710a 7bbc ffa3 753c
000000d0: 7b74 953d 6943 033d 7818 603e b957 123d
000000e0: 73ae 113e 7d5d 5f3e 3ebe 393e c750 173e
000000f0: 5e3d 523e 027c d43d 989b 1f3e bef7 7d3c
00000100: 86d1 ab3d 6f13 1f3c e279 863c a735 233d
00000110: 599b ee3c 1503 223d 7528 bebb 3d5d 13bd
00000120: d559 3bbd 8559 41bc 2398 e53b 9f6f 8f3d
00000130: 6ec4 943d c371 0dbc 3827 36bd 8bb3 97bc
00000140: e51c 32bd 0f63 29bc c950 b93d 1823 b43c
00000150: 2197 c3b9 12e2 52bd 20b4 b43d 056c 163c
00000160: b6a9 e8bb 49e4 203d 47e0 a63d 8bbc b63c
00000170: d645 313c 8829 ba3c 39a7 edbb ac7b 2fbd
00000180: 8f5e b83c 08f9 d13b 993d bdbc 21b3 343e
00000190: e05d fe3d a877 253e 846f 163d 40e4 debb
000001a0: cdbf d43d 7397 d83d c20d 013e 0768 993e
000001b0: f6a2 163d 3b8b 2abc 6ee9 ee3c 393b 943d
000001c0: e7f8 96bc c995 213d 6eca 803c 1218 b0bd
000001d0: 8528 f53d 1575 483e cdeb 7c3d 7b3e b33d
000001e0: cdca 713d 4207 92bd 8575 493d 4f65 a33d
000001f0: cd9b 0dbd d21c 143e ad65 70bd 4dea b2bd
00000200: 4fe8 d9bd dbed d2bc 7502 c9bc 2410 c6bd
00000210: 0561 8b3c 65f7 923c 4597 63bd fbfd 1b3e
00000220: da67 473d 9f30 9f3d bf16 043d 32b4 4cbc
00000230: f7e3 09bd bf61 c93d 96e9 ebbb c271 873a
00000240: 7e69 693c 89f2 a63c f0bc a13d 2e05 c7bc
00000250: e826 483d fcb3 933b adaf 383d efc9 d33a
00000260: 6a18 923c def4 973e 1034 5b3e be54 513e
00000270: 5c2f 863e 9b2b 853e ad33 883e d1d5 843e
00000280: 626d 9a3e de0d 903e 2867 903d 6cd1 593d
00000290: f36e ea3c 06c0 86bb 0c42 473d 1f3f 433d
000002a0: 28ca 2b3d a977 9b3d f9df 4e3d 6a41 ad3c
000002b0: ea87 e93d 858a 9dbc 5488 253c 1645 fd3c
000002c0: 8746 003e 1eb4 1f3e 1f86 a3ba a966 4e3e
000002d0: 56c1 c9bd 153a adbd 39d1 a23c 2ff0 42bd
000002e0: 26ee 28be 6a2a d6bb 04e1 2ebc ddf2 38bd
000002f0: a902 5d3d 8a2f 933c 0212 45be 7640 25be
00000300: af4d 10be e1fd 2f3d bb68 f13c 31c6 b3bc
00000310: 012b 34bc e604 983c 00cb 803e 626e b73d
00000320: 9d2e 343e 664c 953d b66e 283c b544 b03d
00000330: 77ef 363e 188d 9f3d a4e0 1a3e 53df 71bd
00000340: a41b 05be 827c 23be 9086 99bd 5639 48bd
00000350: 551a cebd 73ab e2bd ac36 96bd 7cd2 36be
00000360: 529f 173d 679b a63b 9e18 78bd f50a a73c
00000370: f180 48bd 0038 d1bb 3550 e33c e8c9 943b
00000380: e6c4 543b 4178 0abd cf9e 0c3c 1e2a 0a3d
00000390: 0791 7bbd 3d26 9a3c 7f04 ef3c cffd 15bd
000003a0: c02b 6cbc 755a 86bd 9c9e 7dbc c613 39bd
000003b0: 985b 20bd bbdb 773c 8ddc 62bc a876 463d
000003c0: b27d 513c c6b4 88bd 91aa 4d3d 5d59 fc3c
000003d0: 2719 acbc 21bc a63c a1ac 643b 6f78 703d
000003e0: 7e82 fbbb 1d3c f7bc f325 0c3c a9e8 89bd
000003f0: bd51 92bd 30c3 a5bd b582 36bb 1f6a 54bd

convs.3.0.bias f4 [48]
0.009687166 -0.026487652 0.009343316 -0.040075164 0.081263095 -0.047811322 0.034697972 0.12717114
-0.029582363 -0.0645804 0.08270199 -0.037843376 -0.018974358 0.016823092 -0.01157873 -0.04687897
-0.06859387 0.16236113 -0.07869771 -0.015541518 0.010029799 -0.032595903 -0.037186205 0.12083932
0.10294889 -0.009750945 0.034671985 0.016053356 0.09607142 -0.04600068 -0.03301616 -0.056074407
-0.003290365 -0.0021068167 0.048307452 -0.09637381 -0.056446373 -0.086276844 -0.058237847 0.009326649
-0.08387101 -0.09574343 -0.08769487 0.15421616 0.087448634 0.020159861 0.18993849 0.019078666
00000000: ebb6 1e3c a2fc d8bc b514 193c db25 24bd
00000010: 446d a63d ced5 43bd 761f 0e3d 2739 023e
00000020: b656 f2bc bb42 84bd a95f a93d a801 1bbd
00000030: 1d70 9bbc 95d0 893c b7b4 3dbc 2a04 40bd
00000040: f17a 8cbd ff41 263e 442c a1bd daa1 7ebc
00000050: 0754 243c 4883 05bd 9050 18bd 9b7a f73d
00000060: ded6 d23d 6dc2 1fbc 3604 0e3d 5482 833c
00000070: 18c1 c43d 366b 3cbd f43b 07bd 47ae 65bd
00000080: 2aa3 57bb 8512 0abb 09de 453d a25f c5bd
00000090: 5034 67bd eab1 b0bd cf8a 6ebd cdce 183c
000000a0: 90c4 abbd 2215 c4bd 5e99 b3bd d7ea 1d3e
000000b0: 4518 b33d 4b26 a53c 3c7f 423e dd4a 9c3c

convs.4.0.weight f4 [96, 48, 3, 3]
-0.049380187 0.08678073 0.034633886 0.059984766 0.18720241 0.095400594 -0.05442174 0.10960703
0.00605604 -0.0079451315 -0.011767598 0.034556877 -0.035508253 0.031953994 -0.04370139 -0.039029196
0.03667772 -0.016352473 -0.005867731 0.1122913 -0.076528326 0.10107843 0.20890273 0.09709445
0.04368131 0.06874717 0.062201135 -0.043611683 0.19683406 0.08536843 0.27716473 0.11409761
0.16160236 0.11835105 0.23471521 0.22248134 -0.41723734 -0.08357433 -0.23049809 0.18164271
0.39004558 0.053401224 -0.2614165 0.14570172 -0.14593925 -0.044451844 -0.019118723 -0.014879526
0.032884162 0.030156847 -0.009891948 0.043973282 -0.03886197 -0.03889732 -0.0923776 0.25755036
0.00052597997 0.26377872 0.26863188 0.14424695 0.100089505 0.19338632 0.034762986 0.063955754
0.30895528 -0.2268932 0.31446567 0.44932127 0.118564405 -0.1992344 0.123009995 -0.2872409
-0.014770885 -0.035337567 -0.014303009 -0.030404555 -0.0057354653 0.0076695657 -0.016731769 0.019208215
-0.026531583 0.09727279 0.11757953 0.031266183 0.07905048 0.021182528 0.03165052 0.022305353
0.0069446336 -0.03963601 0.14117798 -0.16559006 0.46445188 -0.24108219 -0.35099044 0.17388447
0.046993144 -0.18566696 0.3417467 0.08368164 0.06398122 0.06687781 0.08540959 0.07863277
0.058458373 0.071773015 0.08684936 0.013683264 -0.027120082 -0.005939447 0.025980193 0.037152015
0.013805228 0.020147283 -0.038302135 0.045038242 0.0046014516 0.2407483 0.15235403 -0.14316803
-0.23550348 -0.12320375 0.17268471 0.64153874 -0.11427249 0.31197688 0.013934136 0.045267776
-0.1053553 0.015053616 0.007527676 0.03919982 0.08461279 0.108301654 0.030685442 0.06252669
0.041898157 0.07413374 0.04190002 0.008585903 -0.0027447208 0.007202835 0.007335738 0.066508524
0.26489657 0.2125321 0.22143535 0.1910865 -0.111817986 0.22826645 0.21581824 0.05487179
0.139715 0.009602238 0.1886847 -0.14172062 0.17024583 0.17856896 0.027918499 -0.11666028
0.028709827 -0.22501606 0.041183013 0.03573704 0.047719568 0.14927943 0.08114501 0.092890665
0.067862876 0.08439241 0.086733006 -0.022227168 0.0086969845 0.02752585 -0.0166438 -0.02592837
-0.020664914 -0.010568667 -0.007887935 -0.024652507 -0.055914614 0.081464164 -0.023164129 0.09931262
0.07327225 0.0079278415 -0.081068285 -0.04723463 -0.077146776 0.04177977 0.045066714 0.044410534
-0.014096532 -0.0007122007 0.0092718005 -0.018774655 0.01985744 0.030137949 -0.05418815 -0.025665792
-0.04289873 0.024133908 0.020523459 0.055235036 0.07675046 0.04114752 -0.02240702 -0.023624394
0.057368267 -0.10755608 0.15323988 0.17789036 0.07501776 -0.0011273733 0.11252429 0.060532607
-0.09315332 0.22250074 -0.07378839 0.17748983 0.30587187 0.14372064 0.07199394 0.16990618
0.022586303 0.5943911 0.33032346 0.27811804 0.4299389 0.5234981 0.395618 0.2746632
0.29676124 0.0476356 -0.1417302 0.35042214 0.13630366 0.13411313 0.124576576 0.17674753
0.15928848 0.048087265 0.4072883 -0.04643349 0.08989147 -0.08035353 0.12850454 0.15475816
0.057932742 0.019410057 0.13567479 -0.011703076 -0.09244072 0.03300371 -0.19264594 0.018360538
00000000: e142 4abd 18ba b13d 43dc 0d3d 96b2 753d
00000010: fdb1 3f3e 6361 c33d 55e9 5ebd a779 e03d
00000020: bf71 c63b 4c2c 02bc e2cc 40bc 838b 0d3d
00000030: 1a71 11bd 31e2 023d 3b00 33bd 14dd 1fbd
00000040: 603b 163d 9ff5 85bc 1846 c0bb fbf8 e53d
00000050: e2ba 9cbd 3502 cf3d 99ea 553e 74d9 c63d
00000060: 2ceb 323d 51cb 8c3d 9ec6 7e3d 2aa2 32bd
00000070: de8e 493e a5d5 ae3d 89e8 8d3e 02ac e93d
00000080: 177b 253e 0962 f23d 2f59 703e 26d2 633e
00000090: 22a0 d5be 0529 abbd b107 6cbe 8c00 3a3e
000000a0: 0eb4 c73e 3ebb 5a3d 62d8 85be d532 153e
000000b0: 1971 15be 2313 36bd de9e 9cbc 41c9 73bc
000000c0: 8bb1 063d 7e0b f73c d611 22bc 541d 343d
000000d0: bb2d 1fbd cc52 1fbd 7830 bdbd a4dd 833e
000000e0: ebe1 093a 010e 873e 1e8a 893e 79b5 133e
000000f0: bafb cc3d 1007 463e a263 0e3d 3cfb 823d
00000100: 632f 9e3e b156 68be a501 a13e 700d e63e
00000110: e5d1 f23d 1a04 4cbe aaec fb3d 3d11 93be
00000120: 9501 72bc 20be 10bd 2b57 6abc f912 f9bc
00000130: 92f0 bbbb fb50 fb3b 1011 89bc 8c5a 9d3c
00000140: c358 d9bc f536 c73d 89cd f03d f810 003d
00000150: 38e5 a13d fb86 ad3c faa3 013d b7b9 b63c
00000160: cf8f e33b 5e59 22bd f690 103e 7190 29be
00000170: a3cc ed3e 40de 76be 05b5 b3be c50e 323e
00000180: e27b 403d 7b1f 3ebe 6cf9 ae3e 4861 ab3d
00000190: 9608 833d 3cf7 883d 39eb ae3d 380a a13d
000001a0: 0c72 6f3d bbfd 923d 14de b13d c52f 603c
000001b0: ef2a debc b19f c2bb 6ad4 d43c b62c 183d
000001c0: 532f 623c ea0b a53c b3e2 1cbd 057a 383d
000001d0: c6c7 963b b986 763e b202 1c3e a49a 12be
000001e0: d327 71be 3f52 fcbd 43d4 303e e23b 243f
000001f0: b207 eabd 6fbb 9f3e 014c 643c b46a 393d
00000200: 85c4 d7bd 71a3 763c b9aa f63b fe8f 203d
00000210: 7849 ad3d 42cd dd3d 0960 fb3c fe0d 803d
00000220: 679d 2b3d 6ed3 973d 5b9f 2b3d e3ab 0c3c
00000230: c6e0 33bb c205 ec3b a160 f03b 9f35 883d
00000240: 86a0 873e 04a2 593e f3bf 623e 2eac 433e
00000250: d400 e5bd aebe 693e 75ff 5c3e 3ec1 603d
00000260: 7311 0f3e b552 1d3c 9036 413e 361f 11be
00000270: ec54 2e3e c8da 363e 56b5 e43c 96eb eebd
00000280: df30 eb3c 9c6a 66be 85af 283d 0161 123d
00000290: 9875 433d b5dc 183e 5b2f a63d 763d be3d
000002a0: b1fb 8a3d eed5 ac3d 13a1 b13d c015 b6bc
000002b0: cc7d 0e3c e47d e13c 9458 88bc bc67 d4bc
000002c0: 7749 a9bc 3428 2dbc 663c 01bc 0ef4 c9bc
000002d0: b906 65bd afd6 a63d b3c2 bdbc 6a64 cb3d
000002e0: c30f 963d c7e3 013c 2107 a6bd 1979 41bd
000002f0: 21ff 9dbd 4421 2b3d e097 383d d2e7 353d
00000300: 24f5 66bc fbb2 3aba c0e8 173c 4ecd 99bc
00000310: 12ac a23c dce3 f63c 65f4 5dbd 1141 d2bc
00000320: 94b6 2fbd 79b4 c53c d020 a83c 223e 623d
00000330: 582f 9d3d 4d8a 283d ed8e b7bc f287 c1bc
00000340: fdfa 6a3d 5d46 dcbd eaea 1c3e e428 363e
00000350: e9a2 993d 5fc4 93ba 2373 e63d 0af1 773d
00000360: 2bc7 bebd 3cd7 633e 5e1e 97bd e5bf 353e
00000370: 3d9b 9c3e 812b 133e 8f71 933d e3fb 2d3e
00000380: e906 b93c 042a 183f 2820 a93e 7d65 8e3e
00000390: f420 dc3e f903 063f 718e ca3e a8a0 8c3e
000003a0: 17f1 973e 8c1d 433d b921 11be 886a b33e
000003b0: 3093 0b3e f454 093e 0122 ff3d 4efd 343e
000003c0: 851c 233e 27f7 443d 1888 d03e 0b31 3ebd
000003d0: 0519 b83d 6490 a4bd b296 033e ec78 1e3e
000003e0: e24a 6d3d d701 9f3c 55ee 0a3e 42be 3fbc
000003f0: 8f51 bdbd e62e 073d fa44 45be d768 963c

convs.4.0.bias f4 [96]
-0.07952075 -0.07219721 -0.067655385 -0.05110176 -0.060260545 -0.031872585 0.056317776 -0.0051023383
0.043076377 0.11515268 0.09647658 0.099412374 -0.061470456 -0.040433433 -0.03851899 0.0040522814
0.059687044 0.11360245 -0.057959653 -0.088968836 0.11393665 0.013731324 0.03100811 0.13181354
0.06362705 -0.014282906 0.118668824 0.027869623 0.103579015 0.09767289 -0.07282736 -0.051246602
0.060549818 -0.06255897 0.06140178 -0.058449537 0.051260445 -0.025837336 -0.05210857 -0.018447645
-0.008136906 0.09953917 0.0607621 -0.021168679 -0.026493628 -0.03267392 0.054541655 0.09564974
0.0833466 0.119008414 -0.07038197 0.075280726 -0.06214117 -0.022352714 0.027213385 0.059595037
-0.035218034 -0.056586348 0.13247767 -0.06558129 -0.060062192 -0.022604583 0.05604396 0.11545237
0.09655138 0.094996884 -0.06801378 0.11777338 0.08438298 -0.030895703 -0.030402888 0.005483992
-0.05828364 0.13565612 0.08254639 -0.075907 -0.037625935 -0.0008054602 0.097750835 0.09945699
-0.09184868 -0.035934903 0.042009227 -0.050089918 -0.053233802 0.13166273 -0.058378823 0.10906438
0.06936304 -0.047007862 0.110657185 -0.029077021 0.06073154 0.30218783 0.12524524 -0.038323957
00000000: c6db a2bd 21dc 93bd e88e 8abd 1450 51bd
00000010: c3d3 76bd d48c 02bd 78ad 663d 8431 a7bb
00000020: db70 303d 2bd5 eb3d 8395 c53d b798 cb3d
00000030: 72c8 7bbd 879d 25bd 17c6 1dbd 00c9 843b
00000040: 677a 743d 67a8 e83d 1a67 6dbd 4b35 b6bd
00000050: 9e57 e93d 59f9 603c b804 fe3c 21fa 063e
00000060: e64e 823d da02 6abc a408 f33d d64e e43c
00000070: 3c21 d43d b908 c83d 8326 95bd f5e7 51bd
00000080: 1603 783d eb1e 80bd 6f80 7b3d c868 6fbd
00000090: 79f6 513d d2a8 d3bc cc6f 55bd 841f 97bc
000000a0: a850 05bc 31db cb3d aee1 783d f069 adbc
000000b0: 2a09 d9bc 17d5 05bd 1267 5f3d 03e4 c33d
000000c0: 9fb1 aa3d afba f33d 6c24 90bd c82c 9a3d
000000d0: bd87 7ebd 0a1d b7bc 9bee de3c ed19 743d
000000e0: c940 10bd 16c7 67bd 3aa8 073e 7c4f 86bd
000000f0: c603 76bd 3f2d b9bc 5a8e 653d 4b72 ec3d
00000100: bbbc c53d ba8d c23d cf4a 8bbd 2b33 f13d
00000110: fcd0 ac3d fc18 fdbc 7a0f f9bc 0fb3 b33b
00000120: d3ba 6ebd 70e9 0a3e 150e a93d 2175 9bbd
00000130: a71d 1abd 8525 53ba 9731 c83d 1bb0 cb3d
00000140: 291b bcbd 7a30 13bd de11 2c3d 162b 4dbd
00000150: b00b 5abd 98d2 063e a21e 6fbd 255d df3d
00000160: 360e 8e3d 518b 40bd 3ca0 e23d ef32 eebc
00000170: a3c1 783d 5db8 9a3e 4a40 003e 95f9 1cbd

linear1.weight f4 [1, 96]
0.54188484 0.037293315 0.025508078 0.020081913 -0.07797554 0.01927744 -0.15069987 0.0088873645
0.29017895 -0.13714193 -0.13786569 -0.14359072 0.06937271 0.0052975086 0.013495198 0.0062859925
0.31950846 -0.12397394 -0.015451982 0.027047459 -0.19622704 0.009830833 0.5015731 -0.15436496
-0.12931158 0.0037635972 -0.1785335 0.4249265 -0.13898106 -0.16014493 0.059434764 0.05778902
0.30830637 0.0015877591 0.33499008 0.03339839 0.29001456 0.4709824 -0.0050267945 0.024800874
-0.02016056 -0.13233042 0.3884227 0.033198092 0.07324235 0.011443573 0.38168082 -0.14611046
-0.124631934 -0.119577385 0.032312203 -0.13684079 -0.0069255494 -0.7522756 0.3530579 0.30803996
0.04484128 0.05579515 -0.14301398 0.015237151 0.06924628 0.043080747 0.3320773 -0.1475662
-0.18444493 -0.61571896 -0.049918886 -0.1616338 -0.15352383 0.07416649 -0.031248732 -0.020999402
-0.009335886 -0.12894079 -0.1457103 0.07321216 0.07193566 -0.013101891 -0.16103101 -1.4494206
0.46686253 0.42646316 -0.15198919 0.003889445 -0.0076979613 -0.14239807 -0.009473227 -0.1405965
0.29172865 -0.00018641214 -0.14369287 0.03352657 0.34790406 -0.98420954 -0.15201253 -0.0032292833
00000000: f7b8 0a3f e0c0 183d 51f6 d03c d382 a43c
00000010: a4b1 9fbd b9eb 9d3c 1151 1abe 4f9c 113c
00000020: 5692 943e ef6e 0cbe aa2c 0dbe 7209 13be
00000030: 4813 8e3d b996 ad3b f71a 5d3c bafa cd3b
00000040: 9d96 a33e 0de6 fdbd 4f2a 7dbc a292 dd3c
00000050: beef 48be 8111 213c 1867 003f d911 1ebe
00000060: 416a 04be afa6 763b 7cd1 36be f78f d93e
00000070: 0d51 0ebe 08fd 23be de71 733d 2eb4 6c3d
00000080: 55da 9d3e 5b1c d03a d283 ab3e c0cc 083d
00000090: ca7c 943e 9b24 f13e cfb7 a4bb 342b cb3c
000000a0: c227 a5bc a081 07be 57df c63e b9fa 073d
000000b0: 1600 963d d37d 3b3c ab6b c33e fb9d 15be
000000c0: 073f ffbd fde4 f4bd cd59 043d fe1f 0cbe
000000d0: b8ef e2bb 2295 40bf 01c4 b43e 6ab7 9d3e
000000e0: 7dab 373d 7589 643d 4272 12be 3ea5 793c
000000f0: fed0 8d3d 7075 303d 0906 aa3e 981b 17be
00000100: 22df 3cbe c29f 1dbf bf77 4cbd 5583 25be
00000110: 5a35 1dbe 9ae4 973d 57fd ffbc f006 acbc
00000120: 8bf5 18bc 0e09 04be 1535 15be 42f0 953d
00000130: 0153 933d 50a9 56bc 50e5 24be 9d86 b9bf
00000140: 9b08 ef3e 6159 da3e 0ea3 1bbe 0fe6 7e3b
00000150: 2e3f fcbb cdd0 11be 9835 1bbc 87f8 0fbe
00000160: 755d 953e a177 43b9 3924 13be 2853 093d
00000170: 7b20 b23e 28f5 7bbf 2ca9 1bbe 62a2 53bb

exp_avg f4 [6, 3, 3, 3]
-0.0078396145 -0.009158253 -0.0075100036 -0.009513756 -0.008825513 -0.007472902 -0.010093522 -0.010290355
-0.008742685 -0.0039492934 -0.0050601447 -0.0034470253 -0.005273447 -0.0040224916 -0.0028628157 -0.006244449
-0.006204255 -0.0047313343 -0.0048844074 -0.006162774 -0.004891954 -0.005987363 -0.0050084973 -0.0041815992
-0.006812165 -0.006897895 -0.0059402445 -0.03557318 -0.034588855 -0.031723928 -0.029619409 -0.023978634
-0.024228042 -0.025131438 -0.027334342 -0.026112184 -0.023263203 -0.022953218 -0.019282917 -0.018018952
-0.013059716 -0.0129047865 -0.014494822 -0.017108817 -0.01568962 -0.02941255 -0.030012297 -0.027791552
-0.024874352 -0.021208134 -0.022314167 -0.021944687 -0.026131025 -0.025678726 0.0014969595 0.0026583348
0.004216289 0.00038606333 -3.0576313e-05 0.0010834915 -0.00019977955 -9.690211e-05 -0.0002366627 0.0018503272
0.0028942188 0.003954212 0.0016990865 0.0018875522 0.0017442171 0.0011573932 0.0020887665 0.0014251339
0.0033790134 0.003838384 0.0046529234 0.0030355714 0.0027043151 0.0026432953 0.002225399 0.0027587197
0.0023518656 -3.429416e-08 -1.7022968e-07 -1.1103131e-06 -1.8411203e-06 -1.6849559e-06 -8.533433e-07 -1.2212346e-06
-1.4825416e-06 -1.2215102e-07 2.2714865e-08 6.8726695e-09 -9.672228e-07 -1.8838009e-06 -1.6816426e-06 -7.738112e-07
-1.0453124e-06 -1.3570634e-06 -5.0603226e-08 3.2892714e-08 -1.7123376e-08 -9.745567e-07 -1.9089205e-06 -1.7536762e-06
-9.752181e-07 -1.2532015e-06 -1.5216655e-06 -2.9687595e-07 0.0034488945 0.0009869798 0.0051045716 0.0050768373
0.0055392818 0.002311392 0.0024536967 0.0033060831 0.0071325004 -0.0020829977 -0.0047722035 -0.0007836024
-0.00045686614 -0.0004255141 -0.0038212987 -0.003519429 -0.0027985203 0.0008173814 -0.0020347612 -0.004784597
-8.45434e-05 2.6932932e-05 -0.00017896164 -0.0032130764 -0.0027964497 -0.0026038857 0.0013402342 0.019019403
0.019350192 0.019063568 0.020562718 0.019457871 0.018404651 0.019008212 0.018736565 0.016702473
0.01685037 0.017313166 0.017227525 0.018854372 0.018150339 0.017091842 0.017508505 0.017698133
0.015747476 0.018043077 0.018582692 0.018892126 0.019719664 0.019024964 0.018530756 0.018542228
0.018748727 0.01729476
00000000: ba71 00bc 7f0c 16bc 7a16 f6bb 96df 1bbc
00000010: e298 10bc 3fdf f4bb 4d5f 25bc e198 28bc
00000020: 7b3d 0fbc 1369 81bb 92cf a5bb 7de7 61bb
00000030: e1cc acbb 1bcf 83bb 149e 3bbb 3c9e ccbb
00000040: 104d cbbb 4f09 9bbb 610d a0bb 18f1 c9bb
00000050: af4c a0bb a431 c4bb 521e a4bb cc05 89bb
00000060: 9538 dfbb bd07 e2bb 62a6 c2bb 2fb5 11bd
00000070: 0bad 0dbd f3f0 01bd 67a4 f2bc d76e c4bc
00000080: e379 c6bc 72e0 cdbc 45ec dfbc 38e9 d5bc
00000090: 7992 bebc 6308 bcbc 35f7 9dbc 7b9c 93bc
000000a0: 6bf8 55bc 996e 53bc b17b 6dbc ca27 8cbc
000000b0: 8587 80bc 97f2 f0bc 59dc f5bc 1cab e3bc
000000c0: 4cc5 cbbc aebc adbc 33cc b6bc 58c5 b3bc
000000d0: bb10 d6bc 315c d2bc a035 c43a 7537 2e3b
000000e0: cc28 8a3b 8b68 ca39 113f 00b8 f103 8e3a
000000f0: ea7b 51b9 ed37 cbb8 a928 78b9 ae86 f23a
00000100: efac 3d3b 5692 813b e2b3 de3a be67 f73a
00000110: 379e e43a acb3 973a b0e3 083b 8fcb ba3a
00000120: 7072 5d3b 668d 7b3b 8d77 983b 70f0 463b
00000130: e13a 313b 233b 2d3b 00d8 113b a3cb 343b
00000140: c221 1a3b d44a 13b3 61c8 36b4 1106 95b5
00000150: 691c f7b5 a526 e2b5 4e11 65b5 4de9 a3b5
00000160: befb c6b5 9e28 03b4 841e c332 a424 ec31
00000170: 86d1 81b5 e8d6 fcb5 cdb4 e1b5 e7b7 4fb5
00000180: a94c 8cb5 5824 b6b5 d656 59b3 ec45 0d33
00000190: b416 93b2 83cd 82b5 011b 00b6 db5f ebb5
000001a0: 3de4 82b5 ad33 a8b5 073c ccb5 5262 9fb4
000001b0: d906 623b 8c5d 813a 4044 a73b 995b a63b
000001c0: dd82 b53b b97a 173b 33ce 203b dfaa 583b
000001d0: c0b7 e93b e782 08bb 2560 9cbb ab6a 4dba
000001e0: 8987 efb9 8917 dfb9 c16e 7abb 38a6 66bb
000001f0: 6167 37bb 8a45 563a a159 05bb 1cc8 9cbb
00000200: e44c b1b8 08ee e137 a6a7 3bb9 7a92 52bb
00000210: a444 37bb f4a5 2abb ccaa af3a 94ce 9b3c
00000220: 4b84 9e3c 332b 9c3c 2573 a83c 1d66 9f3c
00000230: 5ac5 963c 1cb7 9b3c 6d7d 993c a0d3 883c
00000240: ca09 8a3c 57d4 8d3c bd20 8d3c 7c74 9a3c
00000250: 05b0 943c 3104 8c3c ff6d 8f3c adfb 903c
00000260: da00 813c 13cf 933c bb3a 983c a9c3 9a3c
00000270: 228b a13c 3eda 9b3c d0cd 973c dfe5 973c
00000280: ee96 993c bead 8d3c

exp_avg_sq f4 [6, 3, 3, 3]
0.06516228 0.087525666 0.07354762 0.07537526 0.091473036 0.06276712 0.08617005 0.08382357
0.07186659 0.033178963 0.04960814 0.039027557 0.040873736 0.05313235 0.03157034 0.0493786
0.04740873 0.03862069 0.046553418 0.065898694 0.05388058 0.054675244 0.06895595 0.044311583
0.06362311 0.061659206 0.05213488 0.6499571 0.5811184 0.598974 0.5794896 0.44606403
0.4598624 0.43013623 0.490635 0.44141713 0.40350473 0.34955552 0.36661866 0.3464942
0.24535161 0.25729722 0.23217545 0.28012943 0.24376388 0.5251573 0.46708623 0.48882905
0.46531048 0.3503555 0.3660269 0.33530098 0.3963821 0.35364744 0.030654497 0.036322687
0.039582357 0.03086772 0.032060903 0.038333595 0.03428789 0.034860853 0.03714738 0.024783134
0.030127088 0.03368367 0.023985842 0.025529249 0.03176664 0.026129339 0.027014727 0.02994488
0.030558188 0.035991106 0.03914479 0.03067217 0.031907793 0.038233675 0.03333606 0.03408553
0.036804356 4.0274128e-07 2.813784e-07 4.0439457e-07 5.302013e-07 5.7589364e-07 4.2387794e-07 4.9496117e-07
5.16515e-07 3.601945e-07 2.3886733e-07 1.4645248e-07 2.4001284e-07 3.45209e-07 3.8565062e-07 2.5572422e-07
3.1708697e-07 3.3493149e-07 2.0641434e-07 3.3392064e-07 2.2474072e-07 3.4119446e-07 4.5023359e-07 4.983205e-07
3.5476984e-07 4.173233e-07 4.4025367e-07 2.956505e-07 0.6958605 0.61845195 0.64673585 0.66608477
0.6402745 0.60065347 0.5974375 0.59588903 0.77873456 0.42585507 0.36286768 0.3875776
0.4048907 0.38331613 0.3536753 0.3541217 0.3531018 0.507595 0.5545062 0.48374984
0.51292455 0.52721083 0.50314003 0.46920982 0.46531647 0.46383294 0.63767534 0.012674549
0.012480409 0.012345855 0.010954508 0.011410353 0.012179884 0.011410807 0.010545658 0.011803209
0.010488359 0.010344636 0.010166458 0.009706496 0.009677158 0.009750666 0.009825619 0.008791917
0.008997384 0.012147461 0.01190478 0.011731854 0.010541377 0.010893724 0.011472935 0.010962977
0.010031635 0.011019535
00000000: cd73 853d a840 b33d 22a0 963d 585e 9a3d
00000010: 3756 bb3d 0c8c 803d ec79 b03d b1ab ab3d
00000020: ca2e 933d aae6 073d e831 4b3d 5cdb 1f3d
00000030: 386b 273d 4fa1 593d e74f 013d 3741 4a3d
00000040: a82f 423d bb30 1e3d ccae 3e3d e5f5 863d
00000050: e2b1 5c3d 26f3 5f3d c738 8d3d 1080 353d
00000060: d54c 823d 5d8e 7c3d 628b 553d 9763 263f
00000070: 2dc4 143f 5c56 193f 6e59 143f 8162 e43e
00000080: 1673 eb3e d13a dc3e 8334 fb3e 6d01 e23e
00000090: 2c98 ce3e f1f8 b23e 71b5 bb3e b067 b13e
000000a0: 743d 7b3e 76bc 833e 67bf 6d3e 206d 8f3e
000000b0: 3d9d 793e b570 063f ed25 ef3e cd47 fa3e
000000c0: 2d3d ee3e cc61 b33e e167 bb3e 92ac ab3e
000000d0: 98f2 ca3e 4711 b53e 241f fb3c 19c7 143d
000000e0: 1c21 223d 4dde fc3c 4b52 033d b003 1d3d
000000f0: 7571 0c3d 41ca 0e3d da27 183d 0006 cb3c
00000100: 15cd f63c e3f7 093d f57d c43c b722 d13c
00000110: bc1d 023d 320d d63c fd4d dd3c f74e f53c
00000120: 2a55 fa3c 696b 133d 4a56 203d 3444 fb3c
00000130: bfb1 023d ea9a 1c3d 648b 083d 459d 0b3d
00000140: 2ac0 163d 5738 d834 5a10 9734 911b d934
00000150: 2853 0e35 1c97 1a35 5791 e334 79dd 0435
00000160: a4a6 0a35 c160 c134 ad3d 8034 8d40 1d34
00000170: 1ddb 8034 2a55 b934 6b0b cf34 784a 8934
00000180: 1a3c aa34 a2d0 b334 bea2 5d34 b445 b334
00000190: 4250 7134 692d b734 a2b7 f134 53c4 0535
000001a0: 3277 be34 7a0c e034 015c ec34 e5b9 9e34
000001b0: ea23 323f de52 1e3f 7b90 253f 8884 2a3f
000001c0: 08e9 233f 6dc4 193f aaf1 183f 2f8c 183f
000001d0: 265b 473f ad09 da3e cbc9 b93e 9270 c63e
000001e0: d54d cf3e 0342 c43e ee14 b53e 714f b53e
000001f0: c2c9 b43e bff1 013f 1ef4 0d3f 0fae f73e
00000200: 064f 033f 4af7 063f c9cd 003f 453c f03e
00000210: f63d ee3e 837b ed3e b13e 233f e9a8 4f3c
00000220: a17a 4c3c 4546 4a3c 897a 333c 7df2 3a3c
00000230: 238e 473c 65f4 3a3c b2c7 2c3c 3f62 413c
00000240: 5ed7 2b3c 8c7c 293c 3791 263c ff07 1f3c
00000250: f18c 1e3c 42c1 1f3c a2fb 203c f90b 103c
00000260: c469 133c 2506 473c 440c 433c f636 403c
00000270: bdb5 2c3c 977b 323c faf8 3b3c 0f9e 333c
00000280: ba5b 243c 488b 343c

exp_avg f4 [6]
-0.009871499 -0.05416934 0.0066345334 -1.6372953e-06 0.013334985 0.020429308
00000000: 11bc 21bc abe0 5dbd 8066 d93b 0ac1 dbb5
00000010: fb7a 5a3c 5d5b a73c

exp_avg_sq f4 [6]
0.107146546 0.9441615 0.05986136 7.680001e-07 1.0171791 0.01746346
00000000: a66f db3d 91b4 713f 2f31 753d 9128 4e35
00000010: ed32 823f 880f 8f3c
